
Model: "model"
_________________________________________________________________
Layer (type)                 Output Shape              Param #   
=================================================================
input_1 (InputLayer)         [(None, 1615, 4)]         0         
_________________________________________________________________
conv1d (Conv1D)              (None, 401, 64)           3904      
_________________________________________________________________
batch_normalization (BatchNo (None, 401, 64)           256       
_________________________________________________________________
activation (Activation)      (None, 401, 64)           0         
_________________________________________________________________
dropout (Dropout)            (None, 401, 64)           0         
_________________________________________________________________
bidirectional (Bidirectional (None, 401, 128)          66048     
_________________________________________________________________
dropout_1 (Dropout)          (None, 401, 128)          0         
_________________________________________________________________
batch_normalization_1 (Batch (None, 401, 128)          512       
_________________________________________________________________
bidirectional_1 (Bidirection (None, 401, 128)          98816     
_________________________________________________________________
dropout_2 (Dropout)          (None, 401, 128)          0         
_________________________________________________________________
batch_normalization_2 (Batch (None, 401, 128)          512       
_________________________________________________________________
dense (Dense)                (None, 401, 64)           8256      
_________________________________________________________________
dense_1 (Dense)              (None, 401, 1)            65        
=================================================================
Total params: 178,369
Trainable params: 177,729
Non-trainable params: 640
_________________________________________________________________
Epoch 1/10

